model.pth (torch, 118906 bytes, 6 tensors)

conv1.weight f4 [64, 21, 3]
0	0x3e0b81a9	0.1362368
1	0xbcae3e01	-0.0212698
2	0x3bd4d95b	0.0064956374
3	0xbd42100a	-0.047378577
4	0x3d9e9ea5	0.07745103
5	0x3e0b8163	0.13623576
6	0x3d055a0e	0.032556586
7	0xbd9657ee	-0.0734099
8	0xbd3ca52a	-0.04605595
9	0x3c8ae223	0.016953534
10	0x3e3bb0ea	0.18329206
11	0xbdd92108	-0.10602003
12	0x3e29fb38	0.16599739
13	0x3d87ad51	0.06624854
14	0xbde21056	-0.11038272
15	0x3e4ffd0f	0.20311378
16	0x3ea200a5	0.31641117
17	0xbe80beeb	-0.2514566
18	0x3e453b31	0.19260861
19	0xbe358ec6	-0.17730245
20	0xbeaa7651	-0.33293393
21	0xbe91dbd4	-0.28488028
22	0xbde0907b	-0.109650575
23	0x3eb2bf4f	0.34911582
24	0xbe6784fd	-0.22609325
25	0xbd877acb	-0.06615218
26	0xbdb20e7c	-0.08694169
27	0x3d2d982a	0.042381443
28	0xbe7dba2e	-0.24778053
29	0xbdcbc4d7	-0.099496536
30	0xbe068b85	-0.1313916
31	0xbd639b0f	-0.055567797
32	0x3e707d96	0.23485407
33	0x3d2b9fd6	0.04190048
34	0x3d953ecd	0.07287369
35	0xbe9c09df	-0.3047628
36	0xbcafa132	-0.021439169
37	0x3d9ab28a	0.07553585
38	0xbdd36623	-0.103222154
39	0x3db6d41b	0.08927175
40	0xbe1f7868	-0.15573275
41	0xbe786f7e	-0.24261281
42	0x3e552f5f	0.20818852
43	0x3b1ef289	0.002425345
44	0xbe0a09cf	-0.13480304
45	0x3d944480	0.07239628
46	0xbd8cfe00	-0.06884384
47	0xbd81131c	-0.06302473
48	0x3dc7e01f	0.097595446
49	0x3d66b55c	0.0563253
50	0x3de233c7	0.11045032
51	0x3cf71fea	0.030166585
52	0xbde28947	-0.1106134
53	0x3d6bfb9f	0.05761301
54	0xbdec3218	-0.11532992
55	0xbd808645	-0.0627561
56	0x3d3443fb	0.044010144
57	0x3d849a27	0.06474715
58	0x3ce31b30	0.027722925
59	0xbdc6c800	-0.09706116
60	0x3df8e1df	0.121524565
61	0xbd1acd9b	-0.037793737
62	0xbd194ef3	-0.037428807
63	0x3cb00c69	0.021490293
64	0x3e8a6cd3	0.2703615
65	0xbce7ee39	-0.028311836
66	0xbe308440	-0.1723795
67	0xbd9badc3	-0.07601502
68	0x3d1cd1db	0.03828607
69	0xbcf27f63	-0.029601758
70	0xbdf6219f	-0.120181315
71	0x3e660d20	0.22465944
72	0xbe21a56f	-0.15785764
73	0x3e036937	0.12833105
74	0x3dcaee7f	0.09908771
75	0x3cda467c	0.026644938
76	0xbd85c791	-0.06532205
77	0xbd00d00b	-0.031448405
78	0xbddff2da	-0.10934992
79	0xbe1d357d	-0.15352435
80	0x3e6c4574	0.2307337
81	0x3d852c63	0.06502607
82	0xbc171c8b	-0.009223114
83	0xbd84dc17	-0.06487291
84	0xbe081b15	-0.13291581
85	0x3e1c8d79	0.15288343
86	0xbddb11e7	-0.10696774
87	0x3df0d9ce	0.11760293
88	0x3bd0a7c3	0.006367655
89	0x3afce216	0.0019293453
90	0x3dd89902	0.10576059
91	0xbd2ebe77	-0.04266211
92	0xbea534bf	-0.32266805
93	0xbe9fd3b7	-0.31216213
94	0xbf2606c0	-0.6485405
95	0x3d2ba103	0.0419016
96	0xbd0670b9	-0.032822344
97	0x3eba4871	0.36383393
98	0x3e8707c6	0.26373118
99	0xbe530370	-0.2060678
100	0xbc48d86e	-0.012258632
101	0x3e2db2f3	0.16962795
102	0x3e433eff	0.19067
103	0xbe3840f9	-0.17993535
104	0xbe59aaec	-0.21256608
105	0x3d127f51	0.03576595
106	0xbe450be5	-0.19242819
107	0xbd9468e1	-0.072465666
108	0x3d485edd	0.048918594
109	0xbdac1761	-0.08402897
110	0x3de98735	0.11402742
111	0xbcf94931	-0.030430408
112	0x3d98b50c	0.07456407
113	0x3d1b1de8	0.037870318
114	0xbdff0e8f	-0.12453949
115	0x3ba2acc1	0.0049644415
116	0x3db01417	0.08597582
117	0x3d11a5d9	0.035558555
118	0x3dd843e6	0.105598256
119	0xbd95073d	-0.07276771
120	0x3dca8b8d	0.098898984
121	0x3d9d1096	0.07669179
122	0x3cb68932	0.022282217
123	0xbd4e56e6	-0.05037584
124	0x3d8deaea	0.06929572
125	0xbd3e4017	-0.04644784
126	0x3e8e0907	0.27741262
127	0x3e96bb48	0.2943976
128	0xbebd3c89	-0.36960247
129	0x3e10a9a3	0.14127211
130	0xbe3bd97e	-0.18344685
131	0x3cf56059	0.029953169
132	0xbdd9077a	-0.10597129
133	0xbceabbf1	-0.02865407
134	0xbd824af7	-0.06361955
135	0xbe623f60	-0.22094488
136	0xbdaf4190	-0.08557427
137	0xbdefb149	-0.11703736
138	0xbda68ce3	-0.08132341
139	0xbe65d1a9	-0.2244326
140	0x3dd46d86	0.103724524
141	0xbe8def3b	-0.2772158
142	0x3e43aab7	0.19108091
143	0xbd2838d5	-0.041069824
144	0x3d4588fb	0.048226338
145	0xbd9bb8ef	-0.07603633
146	0xbe2a3c60	-0.16624594
147	0xbce955be	-0.028483268
148	0xbd6f211a	-0.058381177
149	0x3e5fc260	0.21851492
150	0xbd85f5bc	-0.06541011
151	0xbe46f717	-0.19430195
152	0xbd94e011	-0.072693
153	0x3dbc47a0	0.09193349
154	0xbe8f315f	-0.27967355
155	0x3e74f351	0.23920943
156	0xbf272df5	-0.653045
157	0x3d42d3c4	0.047565237
158	0xbe91f9ab	-0.28510794
159	0x3eade573	0.33964118
160	0x3e65cccf	0.2244141
161	0x3dda6bcb	0.10665091
162	0x3d3e686c	0.046486303
163	0x3d889b96	0.06670301
164	0xbe505cd3	-0.2034791
165	0x3e020d5a	0.12700406
166	0xbe445026	-0.19171199
167	0x3e746d86	0.23869905
168	0xbd33781b	-0.043815713
169	0xbce18932	-0.02753124
170	0x3d47a311	0.048739497
171	0xbdd48716	-0.10377328
172	0x3dc6f5ca	0.09714849
173	0x3df109f8	0.117694795
174	0x3de457e8	0.11149579
175	0x3dfdb03a	0.12387128
176	0xbd707d5b	-0.0587133
177	0x3db437bf	0.08799695
178	0x3ba49270	0.0050223395
179	0xbd2b3574	-0.041799024
180	0x3deae372	0.11469163
181	0x3d7a5527	0.061116364
182	0x3cba1880	0.02271676
183	0x3dac7e28	0.084225
184	0x3df0970d	0.11747561
185	0xbd87d03a	-0.06631513
186	0x3d9c442f	0.076301925
187	0xbda8c636	-0.08240931
188	0xbdfea4c1	-0.12433768
189	0x3d80b6f7	0.06284898
190	0x3eb38be8	0.35067677
191	0xbdc81b3c	-0.097708195
192	0xbe9ee895	-0.3103682
193	0x3e1ce853	0.15323
194	0x3ead5663	0.3385497
195	0x3c97346b	0.018457612
196	0xbe5ba1a9	-0.21448387
197	0xbe4958e1	-0.19662811
198	0x3dfeb7b2	0.12437381
199	0xbe2dca82	-0.16971782
200	0xbe1f41a2	-0.1555238
201	0x3b4700d6	0.0030365488
202	0xbd8ba77a	-0.06819053
203	0x3d6a4e14	0.057203367
204	0xbd6bd086	-0.05757191
205	0xbe9db005	-0.30798355
206	0x3e00624f	0.12537502
207	0xbe9784dd	-0.29593554
208	0x3e626136	0.22107396
209	0xbf1c9832	-0.6116973
210	0xbc9b461e	-0.018954333
211	0x3e62147c	0.22078127
212	0x3d94b657	0.07261341
213	0x3e794bd5	0.24345334
214	0xbe1d25b8	-0.1534642
215	0x3ec8f300	0.39247894
216	0xbd2284a0	-0.039677262
217	0x3e3ba3b4	0.18324167
218	0xbe811698	-0.2521255
219	0x3dee8778	0.11646932
220	0x3c576a37	0.013147882
221	0xbed8228a	-0.4221385
222	0xbcd7fa3b	-0.026364436
223	0xbdae8910	-0.08522236
224	0x3ec48fd8	0.38390994
225	0xbda2d685	-0.079510726
226	0x3d90f739	0.07078404
227	0x3bf0c096	0.007347177
228	0xbe3136bf	-0.1730604
229	0x3e08f6d3	0.13375406
230	0xbe796483	-0.24354748
231	0xbe14cf3d	-0.1453218
232	0xbe02508a	-0.12726036
233	0x3de80ba2	0.11330344
234	0xbdbe91ca	-0.09305151
235	0xbd231445	-0.039814252
236	0xbd985d3f	-0.0743966
237	0x3d3740a7	0.04473939
238	0x3d72c656	0.05927118
239	0xbc9ec0ea	-0.019379098
240	0xb9012b5b	-0.0001231855
241	0x3d8159f7	0.063159876
242	0x3c21e4b0	0.0098811835
243	0x3dbe9cf0	0.09307277
244	0x3c5d1528	0.013493814
245	0x3dc6386a	0.09678729
246	0xbc981d96	-0.018568795
247	0xbdf5bfac	-0.11999449
248	0xbc297f44	-0.010345284
249	0xbd137b64	-0.036006346
250	0x3d3a91c7	0.04554918
251	0x3d5e89cc	0.054330632
252	0x3dc7bea8	0.09753162
253	0x3e3153fe	0.17317197
254	0x3cb64727	0.022250725
255	0x3c54c679	0.012986773

conv1.bias f4 [64]
0	0x3dae41da	0.08508654
1	0x3e1b7954	0.15183002
2	0x3da035f9	0.078227945
3	0xbd1a5925	-0.03768267
4	0xbd8c828b	-0.068608366
5	0x3de03644	0.1094785
6	0x3d6b9df8	0.057523698
7	0xbdda2dbb	-0.10653254
8	0x3d9290f7	0.07156556
9	0x3c9a511d	0.018837506
10	0x3dcf3ce4	0.10119036
11	0x3e0b4e04	0.1360398
12	0x3d2cc501	0.042180065
13	0xbd7be272	-0.061495252
14	0x3ddad765	0.106856145
15	0xbcb466f0	-0.02202174
16	0x3d52764a	0.05138234
17	0x3cf9a8d2	0.030476008
18	0xbdb253ee	-0.087074146
19	0x3d909fda	0.07061739
20	0x3acec5d1	0.0015775507
21	0xbd41de7d	-0.047331322
22	0x3ddb1910	0.1069814
23	0xbcb03f32	-0.021514509
24	0xbdbe2f83	-0.09286406
25	0x3d99f292	0.0751697
26	0xbc3ff137	-0.011715225
27	0x3da2f59f	0.07957005
28	0xbd1125dc	-0.035436496
29	0x3d51864b	0.051153462
30	0x3ddeec7b	0.10884949
31	0xbd81e559	-0.06342573
32	0xbbbc0f11	-0.0057391007
33	0x3d650228	0.05591026
34	0x3d83b75e	0.06431459
35	0x3da00c7b	0.078148805
36	0xbd4f1200	-0.050554276
37	0x3c4c3874	0.012464631
38	0x3d8faf8e	0.07015906
39	0xbdb997a5	-0.09062127
40	0xbd1c1531	-0.038106147
41	0x3cec1186	0.02881695
42	0x3d04484c	0.03229551
43	0x3ae8c8d5	0.0017760048
44	0x3dc2c653	0.095104836
45	0xbdd33e12	-0.10314573
46	0xbe1418ec	-0.14462632
47	0x3e0f6b11	0.14005686
48	0xbe2e5e5f	-0.17028187
49	0xbda3c248	-0.079960406
50	0x3c67a2c8	0.014137931
51	0xbd1a762f	-0.037710365
52	0x3d470db7	0.048597064
53	0x3d9cfe14	0.07665649
54	0x3b7e928b	0.003884467
55	0xbcac5d97	-0.02104072
56	0xbe1b5fab	-0.15173213
57	0xbe30af2f	-0.17254327
58	0x3d6beddf	0.0575999
59	0xba85b5e0	-0.0010201298
60	0x3d9f8b53	0.07790246
61	0x3d003691	0.03130204
62	0xbe030d0a	-0.12797943
63	0x3dc610e8	0.09671193

conv2.weight f4 [128, 64, 3]
0	0xbe436454	-0.19081241
1	0x3d49edfe	0.049299233
2	0xba8f23ec	-0.001092074
3	0xbe05a5b4	-0.13051492
4	0x3e2d0dd9	0.16899814
5	0xbe00f029	-0.12591614
6	0xbe428c2a	-0.18998781
7	0xbda06933	-0.07832565
8	0x3df7bad9	0.12096185
9	0xbd1c7c93	-0.03820474
10	0x3d260136	0.0405285
11	0xbe5b5850	-0.21420407
12	0xbdb8056c	-0.08985409
13	0xbdd485e8	-0.10377103
14	0x3d30f0e1	0.04319847
15	0x3e5e0eda	0.21685353
16	0x3d11b43e	0.035572283
17	0xbf0ecd27	-0.5578179
18	0x3d90d818	0.070724666
19	0x3df028bf	0.11726522
20	0x3db3ceb4	0.0877966
21	0xbe50d681	-0.20394327
22	0x3dad40df	0.08459639
23	0x3d827e2e	0.06371723
24	0x3be5cbbd	0.007012813
25	0xbe9cab18	-0.30599284
26	0x3db0545d	0.08609841
27	0x3dfdfebe	0.12402104
28	0x3c0d7694	0.008634228
29	0x3e9addf2	0.30247456
30	0xbefcb8dc	-0.49359787
31	0x3daab47c	0.08335206
32	0x3eb10905	0.34577194
33	0xbd51882c	-0.051155254
34	0x3dd61f1e	0.10455154
35	0xbe238852	-0.15969971
36	0x3e48bf57	0.1960424
37	0xbcc17ce8	-0.02361913
38	0x3deea6a3	0.11652877
39	0x3e2f3434	0.17109758
40	0xbe9d059b	-0.3066834
41	0x3cfb7af7	0.030698283
42	0x3e8ffb1f	0.28121278
43	0xbd9a7212	-0.075412884
44	0xbe9144d8	-0.28372836
45	0xbeaaf109	-0.3338702
46	0x3cd50169	0.026001649
47	0xbe49eb37	-0.19718634
48	0x3dcb740c	0.099342436
49	0xbe98a673	-0.2981449
50	0xbeda62e9	-0.42653587
51	0x3e005e34	0.12535936
52	0xbe04603d	-0.12927337
53	0xbdae4192	-0.085086
54	0x3d3f5090	0.04670769
55	0x3e09321f	0.13398026
56	0xbe95a090	-0.29224062
57	0xbc866852	-0.016407166
58	0xbdecb0ec	-0.11557183
59	0xbcfb1a52	-0.030652199
60	0xbd252742	-0.040320642
61	0x3c973762	0.018459026
62	0x3e629179	0.22125806
63	0x3d8263b5	0.06366674
64	0xbccbe2be	-0.024888393
65	0x3e0a715a	0.13519803
66	0x3e01cbf0	0.12675452
67	0xbd93ae3b	-0.07210966
68	0x3d215b66	0.039393805
69	0x3c211156	0.009830793
70	0x3e097073	0.13421802
71	0x3e0fb766	0.14034805
72	0xbdc0689d	-0.093949534
73	0xbd8e2920	-0.06941438
74	0xbe3fd10d	-0.1873209
75	0x3e2dfd05	0.1699105
76	0xbda3a0c6	-0.079896495
77	0x3e01ecfa	0.12688056
78	0x3da34049	0.07971246
79	0x3e400d7d	0.18755145
80	0xbe8edf28	-0.2790463
81	0xbc80f4d2	-0.01574174
82	0xbd4237bd	-0.047416437
83	0x3d58a050	0.05288726
84	0xbdce78d6	-0.100816414
85	0x3da14819	0.0787508
86	0xbd42e03a	-0.04757712
87	0x3dd1533f	0.10220956
88	0xbd65966c	-0.056051657
89	0x3c4cee5c	0.012508001
90	0xbe81ccc7	-0.25351545
91	0xbcca52a2	-0.024697606
92	0xbe002277	-0.12513147
93	0x3dd1d17e	0.102450356
94	0x3d388b60	0.045054793
95	0xbeac75c5	-0.336836
96	0xbe411a32	-0.18857649
97	0xbcc1a24d	-0.023636961
98	0xbc81629a	-0.015794087
99	0x3d8446fc	0.06458852
100	0xbea788fe	-0.32721704
101	0xbd875b0a	-0.06609161
102	0xbe8685ca	-0.26273948
103	0xbf1f1958	-0.62148046
104	0xbe3e1d26	-0.18565807
105	0x3dc207dc	0.09474155
106	0x3da77407	0.08176427
107	0x3ebaaefb	0.36461625
108	0xbee80039	-0.4531267
109	0x3e510fec	0.2041623
110	0xbdeb2260	-0.11481166
111	0x3e829f34	0.25512087
112	0x3dd9234d	0.10602436
113	0x3cdd4258	0.027009174
114	0x3d2ec193	0.042665076
115	0xbe6ab2fb	-0.22919838
116	0xbd9716f4	-0.07377425
117	0x3dac102a	0.084015206
118	0xbd039008	-0.03211978
119	0xbe69f380	-0.22846794
120	0xbe8c9712	-0.27459008
121	0x3d8efdce	0.06982003
122	0xbedd66d3	-0.4324251
123	0xbda6980d	-0.0813447
124	0x3e0b43e7	0.13600121
125	0x3e828047	0.25488493
126	0x3d12d626	0.03584876
127	0xbc04c3a9	-0.00810329
128	0x3e13dc68	0.14439547
129	0x3df2972a	0.118452385
130	0xbd93a111	-0.07208455
131	0xbddffa7d	-0.10936449
132	0x3e3896ab	0.18026225
133	0x3d96d105	0.07364086
134	0x3b5f7b8f	0.0034100746
135	0xbf6aaf9c	-0.9167421
136	0x3d9286ea	0.07154639
137	0xbe56c614	-0.20973998
138	0xbd925c0d	-0.071464635
139	0xbec4ea70	-0.38460112
140	0x3dadbe6d	0.084835865
141	0xbea51706	-0.32244128
142	0xbe29e70c	-0.16592044
143	0xbe909905	-0.28241745
144	0xbe47bc7f	-0.195055
145	0xbdaedad5	-0.08537833
146	0x3d87db48	0.066336215
147	0xbe9dd6db	-0.30827984
148	0x3e099976	0.13437447
149	0xbe39220c	-0.18079394
150	0x3ded61f5	0.115909494
151	0x3dfc0ecb	0.12307509
152	0xbd9c3a08	-0.07628256
153	0xbe32fd78	-0.17479503
154	0xbea10891	-0.31451848
155	0xbf027266	-0.5095581
156	0x3dfd7906	0.12376599
157	0xbf00a926	-0.502581
158	0xbe02cf45	-0.1277438
159	0x3dc82eb3	0.09774532
160	0x3e98019a	0.29688722
161	0xbddfb037	-0.10922282
162	0x3c0bc387	0.008530504
163	0xbcd65f6f	-0.026168553
164	0x3deb1b78	0.114798486
165	0x3dcb8a92	0.099385396
166	0xbd05afda	-0.03263841
167	0xbd190c1d	-0.037365068
168	0xbeee731e	-0.46572202
169	0xbd08b4a5	-0.0333754
170	0xbe75e6b0	-0.24013782
171	0x3ce6ae29	0.028159218
172	0x3ae8f696	0.0017773684
173	0xbdac9e58	-0.08428639
174	0xbe96e4cc	-0.29471433
175	0x3cc499c4	0.023999102
176	0xbd69b421	-0.05705655
177	0x3d956502	0.07294656
178	0xbd066c7c	-0.032818303
179	0xbf1c6145	-0.6108592
180	0xbe8c3c73	-0.2738987
181	0x3e1649a8	0.14676535
182	0xbe6667a9	-0.2250048
183	0xbe4cc69e	-0.19997641
184	0x3e544433	0.20729141
185	0xbcdebce6	-0.027189683
186	0x3d33d134	0.043900684
187	0xbd845457	-0.06461399
188	0x3d4d7afd	0.05016612
189	0xbe4a21c8	-0.19739449
190	0x3dcc794a	0.099840716
191	0x3e1c6008	0.15271008
192	0xbd1ef952	-0.03881199
193	0xbf00a47f	-0.50251
194	0xbd75816a	-0.059937872
195	0x3c7cb13d	0.015423116
196	0xbd83c688	-0.06434351
197	0xbe68e3ac	-0.227431
198	0x3ef0db62	0.47042376
199	0xbed0995d	-0.40742007
200	0xbed78c5a	-0.42099267
201	0x3da5eae1	0.0810144
202	0x3e6e89a7	0.23294698
203	0xbedf8ad3	-0.43660602
204	0xbe45d85e	-0.19320819
205	0x3d3fb624	0.046804562
206	0xbf0d8ac0	-0.5528984
207	0x3d9d3990	0.07676995
208	0x3e4eebb1	0.20207097
209	0x3d1aa653	0.037756275
210	0xbced508a	-0.028969068
211	0xbe2a4423	-0.16627555
212	0x3de0f802	0.10984804
213	0x3e7e15bc	0.24812979
214	0x3ee32988	0.44367623
215	0x3d34eeee	0.044173174
216	0x3da2bb36	0.07945864
217	0x3d037a92	0.032099314
218	0x3e030a21	0.12796833
219	0x3d4314e3	0.04762734
220	0x3e575f27	0.21032391
221	0x3e8a5865	0.27020565
222	0xbcc23634	-0.023707487
223	0xbe4e53a0	-0.20149088
224	0xbf035af0	-0.51310635
225	0xbe99fd32	-0.30075985
226	0x3d103823	0.035209786
227	0x3e5b2ca0	0.21403742
228	0x3e23b65a	0.1598753
229	0x3da1abd8	0.07894105
230	0x3cf3929d	0.029732997
231	0x3cec05c7	0.028811349
232	0x3e5fc07d	0.21850772
233	0xbd4e4806	-0.050361656
234	0xbda1c4c0	-0.07898855
235	0x3ce25a93	0.02763108
236	0xbe86d9c1	-0.26338008
237	0xbda0e2ca	-0.078557566
238	0xbb8e1865	-0.004336404
239	0xbe7bc985	-0.24588592
240	0xbeec1bcc	-0.46114957
241	0xbe2cdd55	-0.16881306
242	0xbe9679f5	-0.2938992
243	0xbd9bd15d	-0.07608292
244	0x3dad9f8e	0.08477698
245	0xbde7c3c8	-0.11316639
246	0xbc821108	-0.015877262
247	0xbd0a8247	-0.03381565
248	0xbddc26d4	-0.107495934
249	0xbd424b2b	-0.047434967
250	0xbe69bf59	-0.228269
251	0xbe2a8357	-0.16651665
252	0x3c434d62	0.011920305
253	0x3e6d50a8	0.23175299
254	0xbdf1fa61	-0.11815334
255	0x3ec2c0ee	0.3803782

conv2.bias f4 [128]
0	0xbcc19d54	-0.02363459
1	0xbc8812f2	-0.016610596
2	0xbd02fa6f	-0.031977113
3	0xbd3c8960	-0.04602945
4	0xbd49fd65	-0.04931392
5	0xbcfc2b00	-0.030782223
6	0xbd15ebad	-0.03660171
7	0x3c62cbb2	0.01384251
8	0xbaa5879c	-0.0012628916
9	0xbd9cd28f	-0.07657348
10	0xbdcda999	-0.10042114
11	0xbd5e2aa5	-0.054239888
12	0xbe700d3d	-0.2344255
13	0xbd37285f	-0.044716235
14	0xbc4591bb	-0.012058671
15	0xbdd436cb	-0.103620134
16	0xbd9a0d33	-0.07522049
17	0xbd244611	-0.040105883
18	0xbdc0d5f3	-0.094158076
19	0xbd01ba0d	-0.031671572
20	0x3db04cfe	0.08608435
21	0xbe36c1c1	-0.17847349
22	0xbbbdd131	-0.00579276
23	0x3bee8c3f	0.007279902
24	0x3c2855a5	0.0102743255
25	0xbc79cbe0	-0.0152463615
26	0x3c52f28f	0.012875213
27	0xbd461586	-0.04836037
28	0xbd30f24b	-0.04319982
29	0xbd2dba0f	-0.042413767
30	0x3cffaf5d	0.03121155
31	0xbde2e1ed	-0.11078248
32	0xbd77c2d4	-0.060488537
33	0xbd2a9f32	-0.041655727
34	0xbdb4c867	-0.08827286
35	0xbc940442	-0.018068437
36	0xbd0de778	-0.034644574
37	0x3caf997e	0.021435495
38	0xbd910bfb	-0.07082363
39	0xbd07ea6e	-0.033182554
40	0x3bbf3b8c	0.005835956
41	0xbdc2b240	-0.09506655
42	0xbd1f55b6	-0.0389001
43	0x3c20c99e	0.009813694
44	0xbd70cbff	-0.058788296
45	0x3c53c64a	0.012925694
46	0xbd8f407e	-0.06994723
47	0xbe3cecb3	-0.18449669
48	0x3c4fba00	0.012678623
49	0x3d2f1bfe	0.042751305
50	0x3d0d60bc	0.03451608
51	0x3c35f099	0.011104726
52	0xbd741cd6	-0.059597813
53	0xbb2c2696	-0.0026268116
54	0xba0a27d3	-0.00052702165
55	0xbc753818	-0.014966987
56	0xbd2de3aa	-0.042453445
57	0xbd4bb42a	-0.049732365
58	0xbdc62617	-0.09675234
59	0xbb3a0bdd	-0.0028388419
60	0xbd54a219	-0.0519124
61	0xbdb28db9	-0.08718438
62	0xbde1f931	-0.110338576
63	0xbd529e7f	-0.051420685
64	0xbd1cd16f	-0.03828567
65	0xbd7d910b	-0.061905902
66	0xbcbf2846	-0.023334634
67	0x3c95eedc	0.018302374
68	0xbd86a002	-0.06573488
69	0xbc806911	-0.0156751
70	0xbd00b858	-0.031425804
71	0xbdc2cdf9	-0.095119424
72	0xbddb188a	-0.1069804
73	0xbd814cb4	-0.06313458
74	0x3d4d7eaa	0.050169624
75	0xbd1c0d06	-0.038098358
76	0xbe79ab6e	-0.24381801
77	0x3d6af916	0.057366453
78	0xbd895ecf	-0.067075364
79	0x3d201b39	0.03908846
80	0xbc5f4b93	-0.013628858
81	0x3d2d89b9	0.04236767
82	0xbdb185a9	-0.08668072
83	0xbddf0f4f	-0.10891592
84	0xbde8361d	-0.11338446
85	0xbd2ef712	-0.042716093
86	0xbdd46fd7	-0.10372894
87	0xbc13bfd5	-0.009017904
88	0xbd1ddde3	-0.038541686
89	0xbc74044c	-0.014893603
90	0x3d1a2c12	0.037639685
91	0xbe1dba3e	-0.15403077
92	0xbd815eb7	-0.063168935
93	0xbb60896c	-0.0034261597
94	0xba354ad5	-0.0006915753
95	0xbd975697	-0.073895626
96	0x3d615f19	0.055022333
97	0xbd913ef5	-0.07092086
98	0xbe0b1292	-0.13581303
99	0xbe1753b5	-0.14778025
100	0xbd48a769	-0.04898778
101	0xbde28b42	-0.110617176
102	0xbcf586b2	-0.029971454
103	0x3cb8bc55	0.022550741
104	0xbd5f39ff	-0.05449867
105	0xbe29a7bd	-0.16567893
106	0xbd5cf1a1	-0.053941373
107	0x3dc5801b	0.09643575
108	0xbd8d137a	-0.068884805
109	0xbbf38631	-0.0074317683
110	0xbd6a38b8	-0.057182997
111	0xbc9f1de5	-0.019423435
112	0xbce8369d	-0.028346354
113	0xbda41126	-0.08011083
114	0xbd329b42	-0.043605097
115	0xbd835f83	-0.06414702
116	0xbda2c234	-0.079471976
117	0xbc9d9621	-0.019236626
118	0xbd9db561	-0.07700611
119	0xbb8904c0	-0.0041814744
120	0xbd87eadf	-0.06636595
121	0xbd9dbc63	-0.077019475
122	0xbc4ea86b	-0.012613396
123	0x3cd324c4	0.025774367
124	0xbde56f86	-0.11202912
125	0x3d19001b	0.037353616
126	0xbdb075ba	-0.086162046
127	0xbcf9e69c	-0.030505471

fc.weight f4 [2, 128]
0	0x3e32a6ac	0.17446393
1	0xbe99b527	-0.3002102
2	0xbbe1b5ed	-0.0068881423
3	0xbd35d427	-0.044391777
4	0xbe526e6a	-0.20549932
5	0x3eadf16e	0.3397326
6	0x3ce3b459	0.027795957
7	0xbe1510b9	-0.1455716
8	0xbe155f09	-0.14587034
9	0xbe1df60a	-0.15425888
10	0x3e5752cf	0.21027683
11	0x3e051e74	0.12999898
12	0x3f696ac1	0.9117852
13	0xbe5521fb	-0.20813744
14	0x3ea92b51	0.3304086
15	0x3d17a2c0	0.037020445
16	0x3e4d647e	0.20057866
17	0xbe3de7e4	-0.1854549
18	0x3e73df10	0.2381556
19	0x3c018c24	0.007906947
20	0xbe43d235	-0.19123156
21	0x3e0b8336	0.13624272
22	0x3e79976f	0.24374174
23	0x3e487e01	0.19579317
24	0x3e4cc26f	0.19996046
25	0xbe553439	-0.20820703
26	0xbd7f294d	-0.062295247
27	0xbdceddcf	-0.101009004
28	0xbdf94b2f	-0.12172543
29	0x3f256798	0.64611197
30	0xbde42f01	-0.11141778
31	0xbe0a02ef	-0.13477682
32	0xbe2a8983	-0.16654019
33	0x3e8349cc	0.2564224
34	0x3e690f80	0.22759819
35	0xbdfab242	-0.12241031
36	0xbe1a2d31	-0.15056302
37	0x3dddc78c	0.10829076
38	0x3e2d542a	0.16926637
39	0x3e9e0c60	0.30868816
40	0xbe22cdd8	-0.15898836
41	0xbe445426	-0.19172725
42	0x3ca65a99	0.020306872
43	0xbe8091fe	-0.25111383
44	0x3e826538	0.2546785
45	0xbe0cd8fa	-0.13754645
46	0x3e90a8eb	0.28253874
47	0x3f191790	0.5980158
48	0x3e7ef95c	0.2489981
49	0xbe8bfaf5	-0.27339903
50	0x3ea4a2c5	0.32155433
51	0xbdb823e0	-0.089912176
52	0x3f10e21b	0.5659501
53	0x3e92abc5	0.28646675
54	0x3e29df7d	0.1658916
55	0xbdaf6786	-0.085646674
56	0xbe0e9828	-0.1392523
57	0x3e2113ae	0.15730163
58	0x3e84719a	0.2586792
59	0xbe59f70f	-0.21285652
60	0xbdda0cff	-0.1064701
61	0xbea9c92d	-0.33161297
62	0xbdeb6a75	-0.114949144
63	0xbe229cc4	-0.15880114
64	0x3e73b827	0.23800717
65	0x3e90db65	0.28292385
66	0x3e1f5473	0.15559559
67	0xbe03d202	-0.1287308
68	0x3c29919e	0.010349659
69	0x3ebca493	0.3684431
70	0xbe1fe090	-0.15613008
71	0xbd912ce1	-0.07088638
72	0xbe4325cc	-0.19057387
73	0x3e5c9b1b	0.21543543
74	0xbe977807	-0.2958376
75	0x3ea73f44	0.32665455
76	0x3f433717	0.76255935
77	0xbdc32bc2	-0.095298305
78	0x3d892f7a	0.066985086
79	0xbe21e27d	-0.15809055
80	0xbd87d5d0	-0.066325784
81	0x3e724207	0.23658
82	0xbe86eea9	-0.26353958
83	0x3f2f2e21	0.6842976
84	0x3e88e16f	0.26734492
85	0x3e2b67e9	0.16738857
86	0xbd1e989b	-0.038719755
87	0xbe555d2c	-0.20836323
88	0xbe4375dd	-0.1908793
89	0x3e2c4e64	0.16826779
90	0xbe5b7208	-0.21430218
91	0x3bf5ab7a	0.0074972482
92	0xbe5d5699	-0.21615066
93	0x3e570661	0.20998527
94	0x3de94177	0.113894396
95	0xbdb4a910	-0.088213086
96	0xbeaf7601	-0.34269717
97	0x3e1ce091	0.1532004
98	0x3e482de6	0.19548759
99	0x3ebe9239	0.37220934
100	0xbe0703ce	-0.13185045
101	0xbe85c199	-0.26124266
102	0x3e2af18b	0.16693704
103	0xbe1f7787	-0.1557294
104	0xbd924af0	-0.071431994
105	0x3e0bdf3b	0.13659374
106	0x3e6178a8	0.22018683
107	0xbe5098b7	-0.20370756
108	0x3d8d27f7	0.06892388
109	0x3e879512	0.2648092
110	0x3e1fd65a	0.15609112
111	0x3e4f8626	0.20266017
112	0xbe121bba	-0.1426839
113	0x3cb1bf96	0.0216978
114	0x3ddd0022	0.10791041
115	0xbe5feac1	-0.21866895
116	0xbe2f8985	-0.17142303
117	0xbe453b06	-0.19260797
118	0x3e650a9f	0.22367333
119	0xbec2bb64	-0.38033593
120	0x3e266937	0.16251074
121	0xbd8f4706	-0.069959685
122	0x3ec6bd84	0.38816464
123	0xbe4edb2f	-0.202008
124	0xbb53ead3	-0.003233601
125	0xbe878f10	-0.26476336
126	0x3d608c96	0.054821573
127	0xbe8f5157	-0.27991745
128	0xbe2f688c	-0.17129725
129	0x3e8d0c6a	0.27548534
130	0x3bcd3166	0.0062619923
131	0xbd2b3479	-0.04179809
132	0x3e1330a9	0.14374031
133	0xbeda69c2	-0.42658812
134	0x3d38beba	0.045103766
135	0x3e397817	0.18112217
136	0x3e18a9af	0.14908479
137	0x3e763300	0.24042892
138	0xbe82bdee	-0.2553553
139	0xbe47b6cf	-0.1950333
140	0xbf4da4e1	-0.8032971
141	0x3e0f4aee	0.13993427
142	0xbe85ecd4	-0.26157248
143	0x3b58b28d	0.003306541
144	0xbe590b36	-0.21195683
145	0x3e9f1f56	0.31078595
146	0xbe8d4380	-0.2759056
147	0xbd63f525	-0.05565371
148	0x3e39954d	0.1812336
149	0xbe0fbd43	-0.14037041
150	0xbe49d93d	-0.19711776
151	0xbea24c2e	-0.31698745
152	0xbe3bc6fb	-0.18337624
153	0x3e014558	0.12624109
154	0x3c739f6b	0.014869551
155	0x3db89818	0.090133846
156	0x3e702c50	0.23454404
157	0xbf039b80	-0.5140915
158	0x3e3faa75	0.18717368
159	0x3dfb5e24	0.12273815
160	0x3e643516	0.22285876
161	0xbeb1955e	-0.3468427
162	0xbe9d4585	-0.30717102
163	0x3e69243a	0.22767726
164	0x3e29d632	0.16585615
165	0xbe4a20d3	-0.19739084
166	0xbe798131	-0.24365689
167	0xbe9f5ebe	-0.3112697
168	0x3da32540	0.07966089
169	0x3e3f2a9d	0.186686
170	0x3c5f27e1	0.013620348
171	0x3e37f691	0.17965151
172	0xbe30fc49	-0.17283739
173	0x3e055894	0.13022071
174	0xbe3e7aa0	-0.18601465
175	0xbf2958d8	-0.6615119
176	0xbdc0a954	-0.09407297
177	0x3e5ead0f	0.21745704
178	0xbea09393	-0.3136259
179	0x3e4a491b	0.1975445
180	0xbf237923	-0.63856715
181	0xbe93509e	-0.28772444
182	0xbe6f1998	-0.23349607
183	0xbd8408ad	-0.06446967
184	0x3de64b86	0.11244874
185	0xbd34d8b5	-0.04415198
186	0xbe85f293	-0.26161632
187	0x3e9a6042	0.30151564
188	0x3e47ca47	0.19510756
189	0x3e7f3262	0.24921563
190	0x3e40ab24	0.18815285
191	0x3d95287f	0.07283115
192	0xbd9a3267	-0.07529145
193	0xbec6c5d4	-0.38822806
194	0xbde1bcc9	-0.11022336
195	0x3d27df5f	0.040984508
196	0xbd4bdda3	-0.049771916
197	0xbe882135	-0.26587835
198	0x3e63c6e9	0.22243847
199	0x3d92baa9	0.07164509
200	0x3e0df6cd	0.13863678
201	0xbe8c67be	-0.274229
202	0x3e4e1fd7	0.20129333
203	0xbe661a79	-0.22471036
204	0xbf3d4113	-0.7392742
205	0x3e4c7b5b	0.19968931
206	0xbd7ec0cc	-0.062195584
207	0x3e169720	0.14706087
208	0x3de48526	0.111582085
209	0xbec91fec	-0.39282167
210	0x3e5f3dd3	0.21800928
211	0xbf171222	-0.59012043
212	0xbe3dfabf	-0.18552683
213	0xbe86c987	-0.26325628
214	0xbd1127cb	-0.03543834
215	0x3ea24148	0.3169043
216	0x3dbaa546	0.09113555
217	0xbe11269d	-0.14174886
218	0x3ea08b63	0.31356344
219	0x3d23425e	0.039858215
220	0x3e68d348	0.22736847
221	0xbe875b0d	-0.26436654
222	0xbe06a0c6	-0.13147268
223	0xbd5e9155	-0.05433782
224	0x3ea5fb83	0.3241845
225	0xbdc5061b	-0.09620305
226	0xbde85948	-0.11345154
227	0xbedd5fbf	-0.4323711
228	0x3e4ba552	0.19887283
229	0x3df0f48b	0.11765393
230	0xbe355677	-0.17708765
231	0x3e57405b	0.21020643
232	0x3d9bd63d	0.07609222
233	0xbe01a944	-0.12662226
234	0xbe6ad2d3	-0.22931986
235	0x3e26fb76	0.16306862
236	0xbde6a226	-0.11261396
237	0xbe87d5ce	-0.26530308
238	0xbdcf92f9	-0.10135455
239	0xbe40dfa3	-0.1883531
240	0x3d1c6c60	0.038189292
241	0xbd77c00b	-0.06048588
242	0xbde2328a	-0.11044796
243	0x3d9dd932	0.07707442
244	0x3e8fbd47	0.28074095
245	0x3e6a1536	0.22859654
246	0xbe1d81cb	-0.15381543
247	0x3e921655	0.28532663
248	0xbe34c740	-0.17654133
249	0x3d688026	0.056762837
250	0xbe995050	-0.29944086
251	0x3e3997b8	0.18124282
252	0x3abf4904	0.0014593904
253	0x3e71d9f2	0.23618296
254	0x3dcb5665	0.09928588
255	0x3e17e9dc	0.14835304

fc.bias f4 [2]
0	0xbb908d8f	-0.0044114063
1	0xbd3afd14	-0.04565151
